ISSR_Dark_Web_Domenico_Lacavalla/ComputerVision/Models/topic_visual_model_safetensors/ctfidf.safetensors (safetensors, 532 bytes, 5 tensors)

data f8 [13]
000000 7f d5 73 a4 4a af de 3f a3 6c ff 9e fa 7a c2 3f
       0.4794489484769073 0.1443780208927353
000010 b2 79 62 13 e9 7e e2 3f fd d6 40 63 e8 47 c1 3f
       0.5779919985396218 0.13500695082046113
000020 18 36 0a a0 86 1b ce 3f ce c0 81 78 36 f6 94 3f
       0.23521502317855503 0.020470477204469976
000030 0b 10 ea f4 a0 56 93 3f 51 7f 71 e3 b0 5c ee 3f
       0.018885149906523718 0.9488148157360944
000040 a0 c6 48 20 cd c8 ed 3f c1 a5 42 6a 70 33 99 3f
       0.9307618742515906 0.024610287175766524
000050 bc 2f f3 5f 44 ab e0 3f 5e 5e 40 68 d8 05 c9 3f
       0.5209066270849614 0.1954908856430277
000060 3f ef 4e d8 fa ea bc 3f
       0.11296050816502844

diag f8 [3]
000000 c9 94 3c bf 53 75 ee 3f c2 20 00 58 da 6e ce 3f
       0.9518221602526405 0.2377579621972981
000010 1b b8 3e c8 fa f1 ed 3f
       0.9357885275874226

indices i4 [13]
000000 02 00 00 00 01 00 00 00 00 00 00 00 02 00 00 00
       2 1 0 2
000010 01 00 00 00 00 00 00 00 01 00 00 00 00 00 00 00
       1 0 1 0
000020 02 00 00 00 01 00 00 00 02 00 00 00 01 00 00 00
       2 1 2 1
000030 00 00 00 00
       0

indptr i4 [6]
000000 00 00 00 00 03 00 00 00 06 00 00 00 08 00 00 00
       0 3 6 8
000010 0a 00 00 00 0d 00 00 00
       10 13

shape i4 [2]
000000 05 00 00 00 03 00 00 00
       5 3
