ISSR_Dark_Web_Domenico_Lacavalla/ComputerVision/Models/topic_visual_model_safetensors/topic_embeddings.safetensors (safetensors, 10328 bytes, 1 tensors)

topic_embeddings f4 [5, 512]
-0.014385978 0.102230474 -0.0089061465 0.21702331 -0.028066799 -0.13526207 0.3918269 0.16351078
0.37590814 0.037259635 0.4262306 -0.23246664 -0.009901237 -0.13912897 -0.00873509 -0.28093395
0.58578926 0.13833211 -0.0028910136 -0.09041335 -0.42238548 0.1280867 0.028963448 -0.037805784
-0.3615922 0.16341527 0.18622088 -0.18077812 0.0016232001 -0.017898398 0.018744702 0.1378473
0.24020875 -0.159701 -0.31632403 0.30159605 0.11858225 0.18770695 0.07079822 0.29243436
-0.32395568 -0.2911334 0.23592368 -0.063549764 0.46873844 0.21161076 -0.06746351 0.21209148
-0.09414199 0.0701608 0.35012758 0.13669454 0.019606076 -0.14981796 -0.028358562 0.30813906
-0.23314492 -0.0028808196 0.0012653051 -0.07126443 -0.5192087 0.011280692 0.21056697 0.16424973
-0.19249812 0.01500795 0.046641555 -0.34172678 0.004358729 -0.2161637 -0.14012583 0.168331
-0.18864188 -0.034055952 0.09296122 0.16516325 -0.057532985 0.008757828 -0.041955844 0.016941082
0.06680168 -0.1799711 0.10939093 -0.25287783 0.064849325 0.000400962 0.20867512 -0.17650142
0.18146749 -0.211349 0.063434415 -0.08292834 -5.955777 0.2205848 0.16771646 -0.008767448
0.36300445 0.16465138 -0.33403048 0.5514483 -0.057361227 0.21133055 -0.11413628 0.031793304
0.08081151 0.053581346 -1.959946 0.13584228 0.082248576 0.050232306 0.10474451 -0.10978495
0.09635917 -0.11840252 -0.019429233 0.01462641 0.29234293 0.08065096 0.05617473 -0.14676476
0.24310449 0.22973192 0.03862109 -0.07183665 0.040929195 -0.12105457 -0.09734846 -0.22008792
-0.15237035 0.10935696 0.003893725 0.023678118 -0.09323739 0.86651593 0.3967327 0.13497904
0.262103 0.19038917 -0.098474495 0.118536346 0.029061053 0.14437684 -0.2581402 -0.13409367
-0.23640889 -0.0017895558 0.033577785 -0.5993094 0.00370427 0.05746627 -0.21522714 0.040188532
0.39330852 -0.12501867 0.010894164 -0.1466185 -0.014050668 -0.07056328 -0.31217206 0.43078008
-0.42590645 -0.12930264 0.06224788 0.05279603 0.18582274 0.14252673 0.3651025 0.115149066
-0.20638531 0.005889 -0.16337763 -0.05094801 -0.17368673 -0.26476425 -0.11640686 -0.08997067
0.67030716 0.2289929 0.2266229 -0.16178131 0.19069327 -0.27328694 0.07389993 -0.062959455
-0.007890657 -0.066494755 -0.16432485 -0.067933634 -0.2255096 -0.20449124 -0.13990583 0.026388988
0.27554923 0.0131180845 0.3591487 -0.13226347 0.13988851 0.39892936 0.22362383 -0.14735046
0.08228251 0.060473412 -0.011970598 0.0041903136 0.16797778 0.0025078151 -0.10476574 -0.036624305
0.0032298376 0.02753411 0.3042106 0.05401454 -0.028026192 0.0978409 0.023988735 -0.03250147
-0.028919766 0.30487263 -0.52245796 -0.24252608 -0.23355584 -0.17192166 -0.24581459 -0.14826165
0.06440985 0.22864482 -0.16932437 -0.26068246 -0.21980543 0.010742158 -0.1510502 0.08933498
-0.18706968 0.23203613 -0.12644862 0.30883223 -0.052841567 -0.044314507 -0.03262386 0.041280106
-0.005721851 0.026630994 -0.03196675 -0.17631948 -0.2006494 0.42433062 0.09732628 0.29249272
0.38332883 0.43100166 -0.21497439 0.111020654 0.36176506 -0.093321845 0.02921418 -0.09730527
00000000: 2ab3 6bbc 365e d13d 16eb 11bc 5c3b 5e3e
00000010: 58ec e5bc 2482 0abe 899d c83e 5f6f 273e
00000020: 0877 c03e 8f9d 183d e63a da3e bc0b 6ebe
00000030: cc38 22bc d377 0ebe 9f1d 0fbc 93d6 8fbe
00000040: 49f6 153f efa6 0d3e 2977 3dbb a22a b9bd
00000050: e942 d8be 2929 033e c144 ed3c 3dda 1abd
00000060: 9d22 b9be 5556 273e b0b0 3e3e e61d 39be
00000070: 8fc1 d43a a99f 92bc 7d8e 993c d827 0d3e
00000080: 48f9 753e a988 23be 39f5 a1be cc6a 9a3e
00000090: 40db f23d 4036 403e a8fe 903d f5b9 953e
000000a0: 85dd a5be 700f 95be fa95 713e 6126 82bd
000000b0: 7cfe ef3e 7eb0 583e 4f2a 8abd 822e 593e
000000c0: 84cd c0bd 77b0 8f3d ec43 b33e a7f9 0b3e
000000d0: ec9c a03c e169 19be 3750 e8bc 67c4 9d3e
000000e0: 8bbd 6ebe 22cc 3cbb 98d8 a53a 16f3 91bd
000000f0: ddea 04bf a7d2 383c de9e 573e 1531 283e
00000100: 3a1e 45be e8e3 753c 370b 3f3d d0f6 aebe
00000110: abd3 8e3b 045a 5dbe 257d 0fbe f65e 2c3e
00000120: 562b 41be 417e 0bbd 7462 be3d 8e20 293e
00000130: b5a7 6bbd fe7c 0f3c e4d9 2bbd 06c8 8a3c
00000140: 52cf 883d 584a 38be 5a08 e03d 3479 81be
00000150: b9cf 843d 3538 d239 eeae 553e cabc 34be
00000160: 9dd2 393e df6b 58be e7e9 813d 55d6 a9bd
00000170: ba95 bec0 fbe0 613e ddbd 2b3e 58a5 0fbc
00000180: b8db b93e 5f9a 283e 0b06 abbe b72b 0d3f
00000190: 9bf3 6abd 0967 583e 48c0 e9bd b239 023d
000001a0: 8180 a53d 1d78 5b3d 83df fabf 3d1a 0b3e
000001b0: f171 a83d 64c0 4d3d 4a84 d63d efd6 e0bd
000001c0: f557 c53d 057d f2bd 0e2a 9fbc 9ca3 6f3c
000001d0: f9ad 953e 552c a53d 7917 663d 8049 16be
000001e0: 62f0 783e d83e 6b3e 2631 1e3d 181f 93bd
000001f0: 5fa5 273d 75eb f7bd a15e c7bd ba5e 61be
00000200: f906 1cbe 8bf6 df3d de2d 7f3b 9df8 c13c
00000210: 3ff3 bebd fdd3 5d3f 8c20 cb3e f237 0a3e
00000220: 5d32 863e 61f5 423e ffac c9bd 2fc3 f23d
00000230: 7211 ee3c 86d7 133e f42a 84be da4f 09be
00000240: 2c15 72be 878f eaba dc88 093d 576c 19bf
00000250: 57c3 723b c061 6b3d 8164 5cbe bb9c 243d
00000260: bc5f c93e e504 00be 707d 323c 2923 16be
00000270: c634 66bc 7b83 90bd 04d5 9fbe 358f dc3e
00000280: 6910 dabe e967 04be a2f7 7e3d a640 583d
00000290: 5148 3e3e 87f2 113e b7ee ba3e 46d3 eb3d
000002a0: ac56 53be 83f8 c03b 774c 27be dcae 50bd
000002b0: efda 31be 2e8f 87be b866 eebd 8b42 b8bd
000002c0: 4099 2b3f 1d7d 6a3e d50f 683e 00aa 25be
000002d0: 1945 433e 44ec 8bbe d958 973d e3f0 80bd
000002e0: d047 01bc 672e 88bd c644 28be ca20 8bbd
000002f0: fdeb 66be 2766 51be 7943 0fbe b82d d83c
00000300: ca14 8d3e 3ced 563c 57e2 b73e 1370 07be
00000310: ef3e 0f3e 7840 cc3e a5fd 643e 0ae3 16be
00000320: bc83 a83d f8b2 773d 5420 44bc e64e 893b
00000330: 5e02 2c3e 285a 243b 6c8f d6bd 5e03 16bd
00000340: afab 533b 378f e13c 7ec1 9b3e 5a3e 5d3d
00000350: 2f97 e5bc cf60 c83d 0684 c43c 4320 05bd
00000360: 25e9 ecbc 4418 9c3e cebf 05bf c258 78be
00000370: 4329 6fbe 3b0c 30be d2b6 7bbe e7d1 17be
00000380: 50e9 833d de21 6a3e 5e63 2dbe 2c78 85be
00000390: ad14 61be e0ff 2f3c e7ac 1abe 42f5 b63d
000003a0: 328f 3fbe e19a 6d3e bf7b 01be 421f 9e3e
000003b0: 6670 58bd 2183 35bd 99a0 05bd 5415 293d
000003c0: 5d7e bbbb 3e29 da3c 91ef 02bd 188d 34be
000003d0: 0977 4dbe dd41 d93e 0053 c73d 9bc1 953e
000003e0: ad43 c43e 40ac dc3e 3f22 5cbe cc5e e33d
000003f0: 4539 b93e 861f bfbd 9352 ef3c fc47 c7bd
